Chapter 10/mlp_checkpoint_2.pth (torch_old, 1966 bytes, 6 tensors)

linear1.weight f4 [16, 3]
000000 87 58 96 3e b8 6e d4 3e 48 7f 87 bd b5 ed f1 3e
       0.29364416 0.41490722 -0.06616074 0.4725167
000010 ae cc b5 bd e4 b3 95 3e b5 42 f2 be 7b e4 55 3e
       -0.0887693 0.29238808 -0.47316518 0.2088794
000020 ee 5c 01 3f 12 2f 08 bf 4d d4 c3 3e 85 cf a2 bc
       0.50532424 -0.53196824 0.3824791 -0.019874344
000030 e7 bc 46 3e fa 39 5b bd 79 20 91 3e 0a 36 17 be
       0.19407998 -0.053522088 0.28345087 -0.14766708
000040 38 72 e5 3e 28 36 65 3e db ff 89 be 94 b2 16 3e
       0.44813704 0.2238394 -0.26953015 0.1471656
000050 fe 31 88 be db f3 0e be c5 c9 9c be e3 f6 99 3e
       -0.2660064 -0.13960211 -0.30622688 0.30071172
000060 28 57 e9 be b5 46 88 be 1c f1 26 be f7 bc b1 be
       -0.45574307 -0.26616445 -0.16302913 -0.3471448
000070 20 33 5f 3d 0a fb 11 bf fc f9 ae 3e 5d cb 0e bf
       0.054492116 -0.5702368 0.34175098 -0.5577906
000080 e1 81 f7 3e c2 08 5b 3d 9b 54 09 be 87 b4 0b 3f
       0.48341277 0.05347515 -0.1341118 0.5457234
000090 c4 02 a0 bd 81 21 bb 3e 0a 42 9e 3d 62 73 3a be
       -0.078130275 0.36549 0.0772744 -0.18208078
0000a0 fc d8 1e 3e b6 52 20 be f2 75 38 3d 74 0b c3 3e
       0.1551246 -0.15656552 0.045034356 0.38094676
0000b0 b9 7a a8 3e 80 cc 74 be 63 cb cc 3e e4 30 a0 3e
       0.3290613 -0.23906136 0.39998922 0.312873

linear1.bias f4 [16]
000000 66 09 18 3e a2 cb b7 be dc 7c 3d bf 82 b3 bd be
       0.14847335 -0.35897547 -0.74018645 -0.37051016
000010 a5 3c 26 bf e0 b0 dc 3e 3c 49 2a 3e bb 59 0f 3e
       -0.64936286 0.43103695 0.16629499 0.13999073
000020 c8 f9 3a 3e c0 8d 24 bc c8 bc 87 3e d6 d8 ca be
       0.18259346 -0.010043561 0.26511216 -0.39618558
000030 df 50 35 be db c2 c9 be ab b6 37 bd f9 bb 3f be
       -0.17706631 -0.39406475 -0.04485194 -0.1872405

linear2.weight f4 [8, 16]
000000 fc 3f 04 bd 07 78 0c be e1 61 e7 3d 54 c8 20 be
       -0.032287583 -0.13717662 0.11297966 -0.15701419
000010 b4 b5 46 be ab 12 3c be e2 41 66 3e 60 13 71 3d
       -0.19405252 -0.18366496 0.2248607 0.058856368
000020 10 56 76 3e 4e 45 53 be d5 1d 95 be 36 e6 7e be
       0.24056268 -0.20631906 -0.29124323 -0.24892506
000030 de cb 62 be 6c 61 cf 3d e5 45 9e bc b8 b6 85 3d
       -0.22148082 0.101260036 -0.019320438 0.065289915
000040 bf b9 54 3c dc 8f a1 3d 70 31 e5 3e b3 58 5d 3d
       0.012983738 0.07888767 0.4476428 0.05403967
000050 40 53 84 3e 5f 28 ce 3d 9a 71 12 3e 15 88 50 be
       0.25844765 0.10066294 0.14301148 -0.20364411
000060 ba 30 01 be c4 18 9c 3d 2d 9c 8a 3e 95 c2 2e 3e
       -0.12616244 0.07621911 0.27072278 0.17066415
000070 44 0d 9e 3e fa 07 2e 3e a8 d6 93 3c ee 6e 12 3e
       0.30869496 0.1699523 0.018046692 0.14300129
000080 e0 4a 3e 3e 35 0b c2 3d a5 62 33 3e 02 5a 32 be
       0.1858325 0.09474794 0.17518099 -0.17417148
000090 cc a1 b9 3b 23 0b 2e 3e 38 29 07 bd 07 56 ee bd
       0.0056650396 0.16996436 -0.032998294 -0.11637502
0000a0 40 28 c0 3b 6e de 2e be 2c 80 a4 bc d3 bb f6 3d
       0.005864173 -0.17077038 -0.020080648 0.120475434
0000b0 71 8f f6 bc 44 01 23 be a7 f2 2d 3e 88 22 84 3e
       -0.030097695 -0.15918452 0.16987096 0.25807595
0000c0 67 28 4b 3e b7 b0 05 3d 24 3e 77 3e 27 62 6a 3c
       0.19839631 0.03263923 0.24144799 0.014305628
0000d0 97 77 7e 3e 2f b3 c4 3c 64 9b dc bd 58 42 19 be
       0.24850307 0.024011223 -0.10771826 -0.14966714
0000e0 00 9e 35 3a 50 84 be bd 50 17 59 3e 9e 35 88 3d
       0.0006928146 -0.0930258 0.212003 0.06650852
0000f0 d2 74 39 3e d2 59 15 be 76 29 fa 3d e6 39 99 3d
       0.1811097 -0.14585045 0.12214939 0.074817464
000100 58 f2 cc 3c 40 52 2f be f0 ab 9d 3d 5e 1a 22 3d
       0.025017902 -0.1712122 0.0769881 0.039575927
000110 e4 87 94 be c8 87 ab bc c8 df 8c bd 85 7e 0c be
       -0.29009926 -0.020938769 -0.068786204 -0.13720138
000120 80 7f 54 be 50 81 7e be a4 1c 6f bd be 21 51 be
       -0.20751762 -0.24854016 -0.058376923 -0.20423028
000130 52 d7 09 bd 00 17 52 be 52 63 b7 3c 09 52 98 be
       -0.03365261 -0.20516586 0.022386227 -0.29750088
000140 fa 2e ff bd 43 4a dd bd 09 54 9a 3a 54 7c 27 3e
       -0.12460132 -0.1080518 0.0011774312 0.16356021
000150 3c 82 9b 3d 93 47 80 be 88 da 80 3d 3e 26 16 be
       0.075931996 -0.25054607 0.062916815 -0.14663026
000160 00 6e e0 bc 0c 9d 3f be 5e 66 ac 3d 1e 91 85 be
       -0.027396202 -0.18712252 0.084179625 -0.26087278
000170 27 75 0c bb e4 ef b3 3d c7 16 73 bd d9 85 82 be
       -0.0021432133 0.0878599 -0.059347894 -0.25492743
000180 77 70 a1 3d 8e e4 9f bd d3 65 8c bd af 31 7e be
       0.07882779 -0.07807265 -0.06855359 -0.2482364
000190 6c ec 28 3c 85 42 0a be 44 8f ea bd 9e 34 3d 3e
       0.010310274 -0.13501938 -0.11453107 0.18477103
0001a0 b0 4c 64 3d 86 a3 0d be 0e b9 49 be eb bd 12 be
       0.055737197 -0.1383191 -0.19699499 -0.1433026
0001b0 c8 80 2a 3d 54 d5 82 bd 2a 71 2e be fa 26 56 be
       0.04162672 -0.06388345 -0.17035356 -0.20913306
0001c0 40 5f 59 bd 7e 0e 40 3e 8f 26 cc 3e 99 07 73 bd
       -0.053069353 0.18755528 0.39873168 -0.059333418
0001d0 65 fe fb 3d 88 1c 0f 3e 68 ae 39 3d a6 09 34 3c
       0.12304381 0.13975728 0.045332342 0.0109886285
0001e0 00 9e 05 3e 08 88 06 3e 31 50 81 3e 26 cc 15 3e
       0.13048553 0.1313783 0.25256494 0.14628658
0001f0 27 ed 03 3e d0 18 db 3c ef 70 55 bc f3 fd b0 3d
       0.12883435 0.02674523 -0.013027414 0.08642187

linear2.bias f4 [8]
000000 4e 8a c5 3c b8 42 a3 3f 25 eb 54 3f cb be 61 3f
       0.0241138 1.2754736 0.831713 0.8818175
000010 ca 15 49 be a6 62 53 be 94 8e c3 bd 83 b2 86 3f
       -0.19637218 -0.206431 -0.09548679 1.0523227

linear3.weight f4 [2, 8]
000000 28 f1 79 be a7 bb 95 3e d1 d6 9d 3e cd a4 aa 3e
       -0.244084 0.2924473 0.30827954 0.33328858
000010 e7 4b d3 3d 49 b5 0e be 80 25 f9 bd 24 97 af 3e
       0.103172116 -0.13936342 -0.12165356 0.34295
000020 6e 47 53 bd 6b 6a 94 3e 06 81 9c 3e a2 98 ab 3e
       -0.051581793 0.2898744 0.30567187 0.33514887
000030 1f 71 4f be 7d 6b 16 be b5 50 0d 3d 3b 9f b2 3e
       -0.20257996 -0.14689441 0.034500796 0.34887108

linear3.bias f4 [2]
000000 40 97 32 40 bb 67 21 40
       2.7904816 2.5219562
