Chapter 10/mlp_checkpoint.pth (torch_old, 1386 bytes, 5 tensors)

linear1.weight f4 [8, 3]
000000 c2 15 79 3e 4b 97 83 3e 12 b3 6f bd 56 5d e7 3e
       0.24324706 0.25701365 -0.058520384 0.45188397
000010 5d 9b 46 be c9 3e a4 3e 09 c6 bb be e0 62 1b 3e
       -0.19395204 0.3207915 -0.36674526 0.15174437
000020 7a ee 08 3f e6 ca a1 be 91 fb e4 3e 7f c2 5b 3e
       0.53488886 -0.31600112 0.4472318 0.21460913
000030 09 68 6e 3e 20 00 00 be 3f 7b ac 3e c7 d5 4e be
       0.23281874 -0.12500048 0.3368778 -0.20198737
000040 70 15 81 3e 27 fe 2b 3e db ff 89 be 94 b2 16 3e
       0.25211668 0.1679617 -0.26953015 0.1471656
000050 fe 31 88 be 01 b2 3f bd f9 a4 7e be 94 60 11 3f
       -0.2660064 -0.046800617 -0.2486762 0.5678799

linear1.bias f4 [8]
000000 14 63 29 c0 fe 1e 14 c0 2e b7 0e c0 85 21 0e c0
       -2.6466722 -2.3143916 -2.2299304 -2.2207959
000010 c2 d6 08 c0 8a 60 28 c0 24 7b 05 3f 38 ac 1d c0
       -2.1381078 -2.6308923 0.5214102 -2.4636364

linear2.weight f4 [4, 8]
000000 12 6a 29 bd 50 1b fb bd d8 68 4d be d6 cf fa 3c
       -0.041360922 -0.12261069 -0.20059526 0.030616682
000010 48 14 e9 bd 9f 95 91 bd d0 4f 1e 3d ed b0 8c be
       -0.113808215 -0.07108616 0.038650334 -0.27478734
000020 f1 bd aa bd 5a ac 2f be f0 60 d0 bd e7 3e 9b 3d
       -0.0833701 -0.1715559 -0.10174739 0.07580357
000030 a7 6c 5d bd 58 a4 6c be fe fd 50 3e 44 f9 0d be
       -0.054058697 -0.23109567 0.2040939 -0.13864619
000040 d1 f6 2f 3e a5 46 eb 3d 90 35 ec 3d 0c 9f 77 3e
       0.17183997 0.11488084 0.11533654 0.24181765
000050 b8 68 1a 3e 10 83 0a 3f 94 8e d0 3d 12 a3 f0 3e
       0.1507901 0.54106236 0.101834446 0.46999413
000060 39 a3 8c 3e 11 be 41 3e 18 f6 dc 3e 82 c5 92 3e
       0.2746828 0.18920161 0.43156505 0.28666312
000070 2e e9 a5 3e fe 64 a3 3e 4c 45 df 3d c7 76 f6 3e
       0.32404464 0.31912988 0.10901889 0.48137495

linear2.bias f4 [4]
000000 3a 23 a4 be 9a 8b e1 be 67 40 d3 3f 84 36 90 3f
       -0.32058126 -0.4405182 1.6504029 1.1266637

linear3.weight f4 [1, 4]
000000 5e a9 1a be 69 7c 25 be ab 4a 0e 3f e3 c7 ee 3e
       -0.15103671 -0.1616074 0.55582684 0.46636876
