Chapter 10/rnn_checkpoint.pth (torch_old, 1283 bytes, 5 tensors)

rnn.weight_ih_l0 f4 [6, 1]
0.6528929 0.7843532 -0.095641345 0.62887925 0.27165526 -0.43026626
00000000: fd23 273f 5fcb 483f 9cdf c3bd 3bfe 203f
00000010: 6616 8b3e dc4b dcbe

rnn.weight_hh_l0 f4 [6, 6]
-0.16292661 0.29447198 0.35988837 -0.29994065 0.35741246 0.11051308 0.37261745 0.15912436
0.1968525 0.23200053 0.35581353 0.0771463 -0.1905866 0.10406178 -0.18809494 -0.047876447
-0.16581345 0.27082008 -0.33798 -0.20392632 -0.11527902 -0.26118872 0.03853175 -0.41893566
0.41592923 -0.2830854 0.31517887 0.38074163 -0.1125862 0.28680292 -0.11825768 0.10007247
0.044629574 0.16884181 -0.17890437 -0.075094834
00000000: 3cd6 26be 08c5 963e 4a43 b83e d291 99be
00000010: c4fe b63e af54 e23d b7c7 be3e 7ff1 223e
00000020: b493 493e 8c91 6d3e 312d b63e e1fe 9d3d
00000030: 2229 43be 581e d53d f69b 40be 181a 44bd
00000040: 00cb 29be eea8 8a3e b70b adbe 10d2 50be
00000050: 6817 ecbd 87ba 85be 78d3 1d3d bc7e d6be
00000060: adf4 d43e 92f0 90be 205f a13e 91f0 c23e
00000070: 9893 e6bd d5d7 923e 1531 f2bd ccf2 cc3d
00000080: 80cd 363d dee4 2c3e b532 37be 52cb 99bd

rnn.bias_ih_l0 f4 [6]
0.10794282 0.27400362 0.23599184 -0.085333034 0.18994142 0.09767238
00000000: 2011 dd3d 344a 8c3e d8a7 713e 16c3 aebd
00000010: 0180 423e 7508 c83d

rnn.bias_hh_l0 f4 [6]
0.1434514 -0.33931914 -0.40412846 -0.06458922 -0.35886192 0.35961044
00000000: ece4 123e 3dbb adbe ede9 cebe 5a47 84bd
00000010: c0bc b7be dc1e b83e

fc.weight f4 [1, 6]
0.29332253 0.38952965 0.12911308 -0.0071018636 0.53722155 -0.31860203
00000000: 5f2e 963e 6e70 c73e 3836 043e c0b6 e8bb
00000010: 5a87 093f ce1f a3be
